Model: "sequential_1"
_________________________________________________________________
Layer (type)                 Output Shape              Param #
=================================================================
vgg16 (Model)                (None, 7, 7, 512)         14714688
_________________________________________________________________
flatten_1 (Flatten)          (None, 25088)             0
_________________________________________________________________
dense_1 (Dense)              (None, 4096)              102764544
_________________________________________________________________
dense_2 (Dense)              (None, 4096)              16781312
_________________________________________________________________
dense_3 (Dense)              (None, 2)                 8194
=================================================================
Total params: 134,268,738
Trainable params: 119,554,050
Non-trainable params: 14,714,688
_________________________________________________________________
None
Epoch 1/50
10/9 [================================] - 252s 25s/step - loss: 20.3107 - accuracy: 0.5548 - val_loss: 0.0000e+00 - val_accuracy: 0.3534
Epoch 2/50
10/9 [================================] - 251s 25s/step - loss: 6.4927 - accuracy: 0.6027 - val_loss: 0.0000e+00 - val_accuracy: 0.1724
…
