…
2020-04-30 22:18:59.899858: I tensorflow/core/platform/cpu_feature_guard.cc:142] Your CPU supports instructions that this TensorFlow binary was not compiled to use: AVX2 FMA
2020-04-30 22:19:00.013183: I tensorflow/compiler/xla/service/service.cc:168] XLA service 0x7fa0c22b3380 initialized for platform Host (this does not guarantee that XLA will be used). Devices:
2020-04-30 22:19:00.013213: I tensorflow/compiler/xla/service/service.cc:176]   StreamExecutor device (0): Host, Default Version
Model: "vgg16"
_________________________________________________________________
Layer (type)                 Output Shape              Param #
=================================================================
input_1 (InputLayer)         (None, 224, 224, 3)       0
_________________________________________________________________
block1_conv1 (Conv2D)        (None, 224, 224, 64)      1792
_________________________________________________________________
block1_conv2 (Conv2D)        (None, 224, 224, 64)      36928
_________________________________________________________________
block1_pool (MaxPooling2D)   (None, 112, 112, 64)      0
_________________________________________________________________
block2_conv1 (Conv2D)        (None, 112, 112, 128)     73856
_________________________________________________________________
block2_conv2 (Conv2D)        (None, 112, 112, 128)     147584
_________________________________________________________________
block2_pool (MaxPooling2D)   (None, 56, 56, 128)       0
_________________________________________________________________
block3_conv1 (Conv2D)        (None, 56, 56, 256)       295168
_________________________________________________________________
block3_conv2 (Conv2D)        (None, 56, 56, 256)       590080
_________________________________________________________________
block3_conv3 (Conv2D)        (None, 56, 56, 256)       590080
_________________________________________________________________
block3_pool (MaxPooling2D)   (None, 28, 28, 256)       0
_________________________________________________________________
block4_conv1 (Conv2D)        (None, 28, 28, 512)       1180160
_________________________________________________________________
block4_conv2 (Conv2D)        (None, 28, 28, 512)       2359808
_________________________________________________________________
block4_conv3 (Conv2D)        (None, 28, 28, 512)       2359808
_________________________________________________________________
block4_pool (MaxPooling2D)   (None, 14, 14, 512)       0
_________________________________________________________________
block5_conv1 (Conv2D)        (None, 14, 14, 512)       2359808
_________________________________________________________________
block5_conv2 (Conv2D)        (None, 14, 14, 512)       2359808
_________________________________________________________________
block5_conv3 (Conv2D)        (None, 14, 14, 512)       2359808
_________________________________________________________________
block5_pool (MaxPooling2D)   (None, 7, 7, 512)         0
=================================================================
Total params: 14,714,688
Trainable params: 14,714,688
Non-trainable params: 0
_________________________________________________________________
None
Model: "sequential_1"
_________________________________________________________________
Layer (type)                 Output Shape              Param #
=================================================================
vgg16 (Model)                (None, 7, 7, 512)         14714688
_________________________________________________________________
flatten_1 (Flatten)          (None, 25088)             0
_________________________________________________________________
dense_1 (Dense)              (None, 1024)              25691136
_________________________________________________________________
dense_2 (Dense)              (None, 1024)              1049600
_________________________________________________________________
dense_3 (Dense)              (None, 2)                 2050
=================================================================
Total params: 41,457,474
Trainable params: 26,742,786
Non-trainable params: 14,714,688
_________________________________________________________________
None
Epoch 1/50
11/11 [==============================] - 587s 53s/step - loss: 4.8498 - accuracy: 0.7670 - val_loss: 0.0000e+00 - val_accuracy: 0.9435
Epoch 2/50
11/11 [==============================] - 576s 52s/step - loss: 0.4863 - accuracy: 0.9659 - val_loss: 0.0000e+00 - val_accuracy: 0.9503
…
